[net]
batch=64
subdivisions=4
width=512
height=512
channels=3
momentum=0.9
decay=0.0005
angle=0
saturation = 1.5
exposure = 1.5
hue=.1

learning_rate=0.001
burn_in=1000
max_batches = 120000
policy=steps
steps=50000,75000,90000
scales=.1,.1,.1

[convolutional]
batch_normalize=1
filters=16
size=3
stride=1
pad=1
activation=relu

[maxpool]
size=2
stride=2

[convolutional]
batch_normalize=1
filters=32
size=3
stride=1
pad=1
activation=relu

[maxpool]
size=2
stride=2

[convolutional]
batch_normalize=1
filters=16
size=1
stride=1
pad=1
activation=relu

[convolutional]
batch_normalize=1
filters=64
size=3
stride=1
pad=1
activation=relu

[maxpool]
size=2
stride=2

[convolutional]
batch_normalize=1
filters=32
size=1
stride=1
pad=1
activation=relu

[convolutional]
batch_normalize=1
filters=128
size=3
stride=1
pad=1
activation=relu

[maxpool]
size=2
stride=2

[convolutional]
batch_normalize=1
filters=64
size=1
stride=1
pad=1
activation=relu

[convolutional]
batch_normalize=1
filters=256
size=3
stride=1
pad=1
activation=relu

[maxpool]
size=2
stride=2

[convolutional]
batch_normalize=1
filters=128
size=1
stride=1
pad=1
activation=relu

[convolutional]
batch_normalize=1
filters=512
size=3
stride=1
pad=1
activation=relu

[convolutional]
batch_normalize=1
filters=128
size=1
stride=1
pad=1
activation=relu

[convolutional]
batch_normalize=1
filters=512
size=3
stride=1
pad=1
activation=relu

###########

[convolutional]
size=1
stride=1
pad=1
filters=80
activation=linear

[region]
anchors = … bias_match=1
classes=3
coords=4
num=10
softmax=1
jitter=.3
rescore=1

object_scale=5
noobject_scale=1
class_scale=1
coord_scale=2

absolute=0
thresh=0.5
random=0
